app/backend/age_predictor.pth (torch, 15308 bytes, 9 tensors)

fc1.weight f4 [64, 25]
0.11716405 -0.041819748 0.11428215 0.3415338 0.37395352 2.1173923 2.2626007 -0.20970057
0.1948018 0.01295658 -0.27984154 -0.04187027 0.34130245 0.5587797 0.014624135 0.2761789
0.74662596 -0.07290549 0.32308665 0.25089008 0.21581677 0.15806146 0.4617447 -0.1743289
-0.5935343 0.13921632 -0.0457165 0.027815074 0.39679992 0.041575726 1.5116162 2.3685815
0.052072622 0.025611404 0.008581206 0.22236334 0.54368335 -0.0045658285 0.09533748 -0.11866658
-0.42758137 0.0066758734 0.0021808199 0.23930436 -0.14702897 0.20551364 0.102857985 0.033297785
-0.456192 -0.2872219 -0.2985297 0.15894207 0.22292678 0.4594205 0.65339446 -1.6619531
-1.3653526 0.330555 -0.080952026 -0.429472 0.097691625 0.01996431 -1.10417 0.8337886
-0.03467035 -0.35453355 0.19378226 -0.06308375 -0.72699 -0.43901536 0.18412827 -0.26910898
0.21889964 0.26357347 -0.02956357 -0.437921 0.44144815 0.08454638 -0.24892257 0.4642772
-1.3049011 -1.4843581 -0.10339791 -0.12266073 0.23820546 0.12793355 0.095937215 -0.5232194
0.6776666 -0.21188293 -0.000982904 0.56053936 0.43314594 -0.35753995 0.32193694 0.10164889
0.20682809 -0.6340939 -0.13499504 0.7546758 0.1483486 0.5457105 0.20459689 0.11791347
-0.21630877 -1.717015 -1.5343797 -0.5001137 -0.24097335 -0.054641616 0.050277743 -0.73444664
-0.9735509 1.0152408 0.43475404 0.31036982 0.66167754 0.41523355 -0.42811912 0.9621645
-0.04643743 0.48544496 -0.28443596 0.010591545 -0.33069324 0.014607078 0.35863805 -0.095345676
0.2413937 -0.11522379 -1.3489771 -1.6342208 0.7642627 -0.095010184 0.14615019 0.13354394
-0.87052345 -0.34405205 0.94976807 -0.21957761 -0.5678115 0.37376806 -0.25191528 0.54575676
-0.29672945 -0.7757694 0.52081054 0.26642957 0.09125713 -0.07243168 0.15720408 -0.20280412
0.04334879 0.0043440065 0.40366423 -2.2840676 -2.96059 0.39411443 0.22818135 -0.2518888
0.080395736 -0.37810084 0.06557374 0.53799313 0.0013890215 0.4108377 -1.3418951 0.23674875
0.17642479 0.045554362 0.34392232 0.42948464 0.059344716 0.09429988 -0.27834925 -0.50484806
-0.3441442 0.32086396 0.26052615 0.5812103 -0.34984353 -1.4222665 0.84527767 -0.42611444
-0.3494623 -0.07136207 -0.46237975 0.33778402 0.6457594 -0.9188282 -1.0726249 -0.3151973
-0.10162758 -0.53791606 -0.06478161 0.026959546 -0.36123165 0.22956207 -0.119881205 -0.4108914
0.22893234 0.2833963 -0.41285044 0.2543225 0.32620412 -1.3882878 -2.0698087 -0.17158239
0.39405692 0.20484237 0.21851954 0.5714025 -0.304419 0.21920982 -0.40774307 -0.24952379
0.4044192 0.043605022 0.5573363 0.22926684 0.013831904 -0.004127149 0.058052927 -0.38352457
0.34436104 0.32105386 -0.2507847 0.076537386 0.00427678 -0.15318651 -1.089859 -1.4574693
0.28329477 0.0806212 -0.16062959 0.40555212 0.7280323 0.35276982 -0.39999235 0.408699
0.037057165 0.28959817 -0.0018863356 0.00607134 -0.31755832 0.012025188 -0.3247891 1.0224149
0.18755145 -0.18726192 0.37628195 -0.31448728 0.14596562 0.8124375 -0.09371519 1.8393476
00000000: b5f3 ef3d 2f4b 2bbd c30c ea3d 85dd ae3e
00000010: d676 bf3e 5b83 0740 73ce 1040 bfbb 56be
00000020: 207a 473e d647 543c 6447 8fbe 2980 2bbd
00000030: 32bf ae3e 300c 0f3f 119a 6f3c 5267 8d3e
00000040: e122 3f3f 794f 95bd 9d6b a53e aa74 803e
00000050: 12ff 5c3e ddda 213e cd69 ec3e 4683 32be
00000060: ddf1 17bf b98e 0e3e 3a41 3bbd 70dc e33c
00000070: 5c29 cb3e 4f4b 2a3d a47c c13f d796 1740
00000080: 1a4a 553d 02cf d13c 3098 0c3c 37b3 633e
00000090: d52e 0b3f f29c 95bb 4c40 c33d 7707 f3bd
000000a0: f2eb dabe 49c1 da3b 16ec 0e3b 340c 753e
000000b0: c38e 16be 2b72 523e 35a7 d23d 4263 083d
000000c0: ff91 e9be c00e 93be e3d8 98be b6c1 223e
000000d0: eb46 643e 2a39 eb3e dc44 273f e1ba d4bf
000000e0: e0c3 aebf 813e a93e 2dca a5bd c1e3 dbbe
000000f0: 8c12 c83d 318c a33c 7155 8dbf 2b73 553f
00000100: 7f02 0ebd 6c85 b5be db6e 463e 0e32 81bd
00000110: 041c 3abf 9fc6 e0be 1f8c 3c3e a7c8 89be
00000120: 3a27 603e 1af3 863e 4d2f f2bc 2e37 e0be
00000130: 7e05 e23e a726 ad3d 8fe5 7ebe beb5 ed3e
00000140: 0007 a7bf 72ff bdbf 49c2 d3bd 8c35 fbbd
00000150: 22ec 733e 0301 033e bb7a c43d b5f1 05bf
00000160: 8f7b 2d3f d7f7 58be c9d4 80ba 827f 0f3f
00000170: 4ec5 dd3e 7a0f b7be ebd4 a43e 4b2d d03d
00000180: beca 533e fa53 22bf 243c 0abe 6f32 413f
00000190: b2e8 173e afb3 0b3f d981 513e 9e7c f13d
000001a0: 0c80 5dbe 26c7 dbbf 8e66 c4bf 7407 00bf
000001b0: b8c1 76be e3cf 5fbd 09f0 4d3d b204 3cbf
000001c0: a23a 79bf 69f3 813f 1598 de3e cbe8 9e3e
000001d0: b363 293f 7e99 d43e 6e32 dbbe 6a50 763f
000001e0: 2d35 3ebd 3e8c f83e 97a1 91be 2988 2d3c
000001f0: a050 a9be 8752 6f3c 689f b73e 9844 c3bd
00000200: e92f 773e 73fa ebbd 48ab acbf 262e d1bf
00000210: b8a6 433f b394 c2bd 65a8 153e bebf 083e
00000220: a0da 5ebf 9727 b0be 0024 733f f4d8 60be
00000230: 185c 11bf 875e bf3e 0afb 80be b7b6 0b3f
00000240: ecec 97be d398 46bf d753 053f 7569 883e
00000250: 05e5 ba3d 1057 94bd 1bfa 203e e2ab 4fbe
00000260: 808e 313d 2b58 8e3b 14ad ce3e 2a2e 12c0
00000270: 4e7a 3dc0 5ec9 c93e 5fa8 693e 92f7 80be
00000280: 85a6 a43d 6f96 c1be 864b 863d ebb9 093f
00000290: d40f b63a 5259 d23e 38c3 abbf 446e 723e
000002a0: b3a8 343e 3697 3a3d 9616 b03e 69e5 db3e
000002b0: 7213 733d 4c20 c13d cb83 8ebe b93d 01bf
000002c0: ab33 b0be 4848 a43e af63 853e 33ca 143f
000002d0: b11e b3be d40c b6bf 1e64 583f ac2b dabe
000002e0: b9ec b2be 4726 92bd 0abd ecbe 07f2 ac3e
000002f0: 7d50 253f 5338 6bbf c64b 89bf 8a61 a1be
00000300: 1f22 d0bd deb4 09bf 39ac 84bd 44da dc3c
00000310: 5bf3 b8be 5212 6b3e 4784 f5bd 5c60 d2be
00000320: 3d6d 6a3e 5219 913e 2261 d3be 8f36 823e
00000330: 3a04 a73e 6ab3 b1bf bf77 04c0 4bb3 2fbe
00000340: d4c1 c93e 33c2 513e 96c3 5f3e 6f47 123f
00000350: cfdc 9bbe 8a78 603e b3c3 d0be 2a83 7fbe
00000360: 0910 cf3e 2e9b 323d 97ad 0e3f edc4 6a3e
00000370: 369f 623c 093d 87bb e8c8 6d3d 555d c4be
00000380: 1750 b03e 2c61 a43e da66 80be a2bf 9c3d
00000390: 3b24 8c3b eddc 1cbe 8080 8bbf 5b8e babf
000003a0: 030c 913e ba1c a53d 157c 24be 87a4 cf3e
000003b0: 5360 3a3f 3f9e b43e cccb ccbe ff40 d13e
000003c0: 41c9 173d 3646 943e eb3e f7ba 17f2 c63b
000003d0: 0197 a2be 4b05 453c c24a a6be 7ede 823f
000003e0: 7d0d 403e 97c1 3fbe 07a8 c03e 7a04 a1be
000003f0: 0378 153e e7fb 4f3f c0ed bfbd be6f eb3f

fc1.bias f4 [64]
0.3521384 0.07952688 -0.061362617 -0.1356405 0.18255058 -0.075552516 0.18541154 -0.22082666
-0.047895025 0.05501281 0.25369033 -0.15425882 -0.082786374 0.0068386295 0.21186855 0.12991792
-0.005520788 0.2807447 0.027354093 -0.1456254 -0.06645251 0.27680624 0.16421662 0.2896423
-0.22951545 -0.10975972 0.15020582 -0.08712851 0.55482733 0.0003974044 0.1330932 -0.19811578
-0.09403318 -0.0552966 0.31428033 -0.26477864 -0.085270695 0.014697988 0.37472585 0.1973787
-0.05967008 0.14774437 -0.11444805 0.108725555 -0.047362316 -0.066126674 0.16037634 0.47792017
-0.08658556 0.35142 0.0068418332 0.5019821 0.0991089 0.039903246 -0.11315171 -0.053057607
-0.04315088 0.28706712 0.31196246 0.3223908 0.3299607 0.42014405 -0.15558335 0.09807783
00000000: 7c4b b43e fdde a23d 5e57 7bbd 58e5 0abe
00000010: 8aee 3a3e 47bb 9abd 86dc 3d3e 6220 62be
00000020: 932d 44bd 1d55 613d b3e3 813e 06f6 1dbe
00000030: e78b a9bd 9516 e03b 12f4 583e 3409 053e
00000040: bae7 b4bb c5bd 8f3e b115 e03c d31e 15be
00000050: 4118 88bd 8cb9 8d3e 6728 283e ff4b 943e
00000060: 1906 6bbe b4c9 e0bd 8ecf 193e 6f70 b2bd
00000070: 2a09 0e3f b75a d039 9549 083e ddde 4abe
00000080: 7894 c0bd b07e 62bd 5ae9 a03e 1191 87be
00000090: 67a2 aebd d4cf 703c 11dc bf3e a41d 4a3e
000000a0: 9d68 74bd 4d4a 173e bd63 eabd 81ab de3d
000000b0: fdfe 41bd 6c6d 87bd b239 243e f4b1 f43e
000000c0: c553 b1bd 52ed b33e 7531 e03b e681 003f
000000d0: 9bf9 ca3d 9671 233d 15bc e7bd ef52 59bd
000000e0: fabe 30bd 76fa 923e 8bb9 9f3e 6810 a53e
000000f0: 9cf0 a83e 1f1d d73e 3e51 1fbe 08dd c83d

ln1.weight f4 [64]
0.7744927 1.2202967 0.7609901 0.73968285 1.4048253 1.296317 0.82670635 1.3140446
0.6556652 0.92918885 1.0454761 0.6853126 0.6694633 0.9400236 1.0184823 1.0716311
1.1117852 1.0152466 1.6483166 0.32849142 1.1410211 0.93095255 1.3080739 0.9337018
0.65606874 0.92606187 1.1094365 0.6529583 1.4254845 1.217115 1.2557985 0.9280863
0.7128597 0.5234572 0.64339256 0.741656 1.0107136 0.8550565 1.1149869 1.366913
1.3206635 1.0013288 0.96253663 1.1480534 1.1036296 1.0269092 0.46063596 1.4542793
1.017822 0.6637646 0.76990145 1.0112394 0.8977921 0.7886748 0.27940038 0.723684
1.3929383 1.0843705 0.82273364 1.1654878 1.0758202 1.2930481 0.9896562 0.31908888
00000000: 2745 463f af32 9c3f 3fd0 423f db5b 3d3f
00000010: 51d1 b33f b7ed a53f 07a3 533f 9d32 a83f
00000020: add9 273f 52df 6d3f 29d2 853f a670 2f3f
00000030: f261 2b3f 63a5 703f a15d 823f 352b 893f
00000040: fa4e 8e3f 9af3 813f 0afc d23f 0730 a83e
00000050: fb0c 923f e852 6e3f f76e a73f 1507 6f3f
00000060: 1ff4 273f 6412 6d3f 0402 8e3f 4628 273f
00000070: 4776 b63f 6dca 9b3f 01be a03f 1097 6d3f
00000080: f97d 363f 4b01 063f 60b5 243f 2bdd 3d3f
00000090: 105f 813f fce4 5a3f e4b7 8e3f 01f7 ae3f
000000a0: 800b a93f 8b2b 803f cd68 763f 6af3 923f
000000b0: bc43 8d3f c371 833f 7ad8 eb3e d325 ba3f
000000c0: fe47 823f 7aec 293f 4318 453f 4b70 813f
000000d0: b4d5 653f 97e6 493f 910d 8f3e 5b43 393f
000000e0: cd4b b23f a7cc 8a3f ac9e 523f b42e 953f
000000f0: 7ab4 893f 9a82 a53f 1c5a 7d3f 9e5f a33e

ln1.bias f4 [64]
-0.26182932 -0.12797263 -0.18241574 -0.014407477 -0.4860226 0.11564515 -0.29241538 -0.099047616
-0.3147985 -0.03013814 -0.06041607 -0.4066793 -0.08228642 -0.1963105 -0.120907985 -0.22412336
-0.0525593 -0.1013111 -0.22241509 -0.19293042 -0.24002296 -0.06909664 -0.087216295 -0.0470023
-0.32396835 -0.044159632 -0.30424345 -0.054623924 -0.06228902 0.023407137 -0.30323106 -0.18934543
-0.15667216 -0.45210013 -0.056306086 -0.31280595 -0.04715789 -0.03364675 -0.098696806 -0.011462185
0.044861853 -0.02973442 -0.24791954 -0.11212402 -0.2491748 -0.08779186 -0.052692182 0.037653152
0.0018667777 -0.09164014 -0.17562585 -0.009045075 -0.3411604 -0.11946428 -0.7498773 -0.29529163
-0.17065261 -0.23093666 -0.037961338 -0.22142154 -0.17109409 0.0956474 -0.023189494 -0.37174484
00000000: 7e0e 86be 420b 03be 31cb 3abe 570d 6cbc
00000010: f4d7 f8be 5dd7 ec3d 78b7 95be 7ad9 cabd
00000020: 452d a1be 43e4 f6bc d776 77bd 4538 d0be
00000030: c885 a8bd 9f05 49be 9b9e f7bd 9880 65be
00000040: 6c48 57bd 327c cfbd c8c0 63be 8d8f 45be
00000050: 94c8 75be 8a82 8dbd 759e b2bd 7c85 40bd
00000060: 2edf a5be bbe0 34bd ccc5 9bbe 56bd 5fbd
00000070: c522 7fbd 53c0 bf3c 1a41 9bbe c5e3 41be
00000080: ab6e 20be ab79 e7be 36a1 66bd 1a28 a0be
00000090: a228 41bd 2dd1 09bd 8d21 cabd e3cb 3bbc
000000a0: 10c1 373d 9995 f3bc 9fde 7dbe 47a1 e5bd
000000b0: ae27 7fbe 38cc b3bd c2d3 57bd 313a 1a3d
000000c0: aaae f43a d3ad bbbd 43d7 33be cb31 14bc
000000d0: 93ac aebe b0a9 f4bd f5f7 3fbf 7730 97be
000000e0: 8fbf 2ebe a97a 6cbe 597d 1bbd 54bc 62be
000000f0: 4a33 2fbe c9e2 c33d e5f7 bdbc 5755 bebe

fc2.weight f4 [16, 64]
0.28904578 0.5352303 -0.05656585 -0.0025118163 0.12097139 0.039552223 -0.15991278 0.036469594
0.02657753 -0.019127162 -0.0129422145 0.035366923 -0.22173154 -0.14852703 -0.0075472235 0.2761205
-0.06435698 0.23497058 1.1949444 0.025954664 -0.5439153 0.27102223 0.639789 0.11454547
-0.03283846 -0.37873828 -0.2178598 0.080377124 0.2130738 0.08618245 0.0065194042 0.041478153
-0.01793132 -0.18675616 0.14630619 -0.10639866 -0.20605597 0.024012964 0.23166627 -0.056222938
-0.008460285 -0.27348801 -0.03832209 0.28863537 0.51109207 -0.10442437 0.06530665 0.10990112
0.01682692 -0.008933823 -0.02613732 0.14996774 -0.17417367 -0.106465384 0.03488375 -0.008796299
-1.2883065 0.32718596 0.04956594 -0.14839727 0.08455518 0.5432595 0.0680674 0.10957138
0.023332987 -0.03517148 0.0029787344 0.082812585 -0.0015536413 0.10927266 -0.048411034 0.017718013
0.07543126 0.06041726 -0.3428114 0.042809177 -0.09188521 0.030685278 -0.15088959 -0.011437434
0.124266826 -0.13818756 0.9022163 0.031059055 -0.4187612 0.038058337 0.34531623 -0.14747699
0.037290998 -0.15051031 -0.09935274 0.09100662 0.08606792 0.20911331 -0.11179841 0.20512581
-0.01840312 -0.19788869 0.103217125 0.005630536 -0.124923475 0.067821205 -0.12221201 0.035553023
0.027883315 -0.20988387 0.20678127 0.09023808 0.17090018 0.02759579 0.023329446 -0.026373765
0.05511919 -0.108674265 0.0025561932 0.008540457 -0.16523081 -0.071500845 0.026902733 0.033141777
-0.8178566 0.118788294 0.018583523 -0.004945718 -0.040470198 -0.10157347 0.17431918 0.114670195
-0.28553072 -0.55084646 0.091763 0.11944452 0.15444306 0.09769137 0.1562378 -0.1394613
0.052601714 -0.016395941 -0.35465762 0.0449981 -0.077679366 0.25129762 0.036063366 -0.47252718
0.28574303 -0.31884173 -0.9221144 -0.027699927 0.061450236 -0.07712203 0.11960666 -0.10680039
0.086464964 -0.050300784 0.17009911 0.0035452128 0.4849255 0.16067411 0.11893225 0.20703217
-0.13350117 -0.1573353 -0.05639353 -0.02581045 -0.087535076 -0.002169429 -0.28712526 0.21722895
-0.022139588 -0.050863776 0.36262 -0.3272622 -0.18053176 0.12533301 0.11676064 0.2875245
0.053246003 -0.27933833 -0.13377623 -0.042486064 0.23349346 0.061255474 -0.04719238 0.0011368691
0.47824663 -0.23736681 0.091623984 0.0936224 -0.14022191 -0.7016448 0.19255431 -0.072457485
0.049940348 0.008406795 0.042537462 0.052266713 0.10949251 0.123514116 -0.096558034 0.052302267
0.019112073 0.039214075 -0.19569309 0.10663328 -0.045189075 -0.009473311 -0.07030623 -0.029680146
0.022991179 -0.21884103 -0.98094565 0.064782165 0.47786394 -0.03303725 -0.33580035 -0.013206424
0.0892668 0.091132484 -0.029695773 0.13349423 -0.0015661125 0.14607486 -0.09842906 0.08858157
0.037546918 0.120911896 0.02139987 0.008187369 0.23256254 0.0420578 -0.10058677 -0.033502977
0.03967372 -0.031506382 0.10305702 -0.08935817 -0.12048786 -0.012055454 -0.092902124 0.0082292305
0.12394357 -0.071983606 -0.032631278 0.054178376 -0.04684921 0.2452003 0.033348843 0.0043292297
0.5189116 -0.0056138514 -0.061785936 -0.062220506 0.004124256 -0.4336169 0.20427063 0.17874004
00000000: cffd 933e da04 093f 98b1 67bd 499d 24bb
00000010: d9bf f73d 8301 223d 2dc0 23be 2461 153d
00000020: 1fb9 d93c 91b0 9cbc 950b 54bc e8dc 103d
00000030: 980d 63be 7817 18be b34e f7bb ab5f 8d3e
00000040: 98cd 83bd 219c 703e f0f3 983f e09e d43c
00000050: 083e 0bbf 6dc3 8a3e 36c9 233f d196 ea3d
00000060: 9f81 06bd fce9 c1be a416 5fbe c39c a43d
00000070: 0530 5a3e 6d80 b03d baa0 d53b ffe4 293d
00000080: b4e4 92bc 023d 3fbe 4ad1 153e 8ae7 d9bd
00000090: 5600 53be d6b6 c43c ec39 6d3e 064a 66bd
000000a0: 029d 0abc 9f06 8cbe a0f7 1cbd 04c8 933e
000000b0: eed6 023f 72dc d5bd 7ebf 853d d713 e13d
000000c0: 9cd8 893c 2b5f 12bc ef1d d6bc 2591 193e
000000d0: 955a 32be 860a dabd 43e2 0e3d 5a1e 10bc
000000e0: 3ae7 a4bf eb84 a73e a805 4b3d 74f5 17be
000000f0: 442b ad3d 0e13 0b3f ec66 8b3d f666 e03d
00000100: d224 bf3c f80f 10bd df36 433b a599 a93d
00000110: 8da3 cbba 58ca df3d a64a 46bd 5e25 913c
00000120: b47b 9a3d 1778 773d fa84 afbe ad58 2f3d
00000130: 502e bcbd b15f fb3c cd82 1abe 1364 3bbc
00000140: 9b7f fe3d 0a81 0dbe a6f7 663f 8f6f fe3c
00000150: de67 d6be 0fe3 1b3d 4acd b03e 3504 17be
00000160: 72be 183d 601f 1abe 7379 cbbd ae61 ba3d
00000170: 6144 b03d cd21 563e 91f6 e4bd 800c 523e
00000180: 24c2 96bc 55a3 4abe 8063 d33d 5c80 b83b
00000190: e1d7 ffbd d8e5 8a3d 4a4a fabd 0ca0 113d
000001a0: 8d6b e43c cceb 56be 78be 533e bece b83d
000001b0: 7500 2f3e 9110 e23c 651d bf3c cb0d d8bc
000001c0: a9c4 613d 9d90 debd ce85 273b 46ed 0b3c
000001d0: 4432 29be 096f 92bd 1f63 dc3c acbf 073d
000001e0: 0d5f 51bf 4747 f33d 793c 983c b10f a2bb
000001f0: 14c4 25bd c005 d0bd ba80 323e 35d8 ea3d
00000200: 1531 92be 4604 0dbf 3dee bb3d 549f f43d
00000210: 5226 1e3e 6a12 c83d cdfc 1f3e f1ce 0ebe
00000220: e574 573d c850 86bc af95 b5be ed4f 383d
00000230: 5c16 9fbd 15aa 803e 2eb7 133d 15ef f1be
00000240: e94c 923e 393f a3be b00f 6cbf f5ea e2bc
00000250: 3eb3 7b3d 28f2 9dbd 56f4 f43d 2aba dabd
00000260: 8b14 b13d 3208 4ebd 762e 2e3e cd56 683b
00000270: 2848 f83e c187 243e c092 f33d 3e00 543e
00000280: 88b4 08be 811c 21be e7fc 66bd 7070 d3bc
00000290: 9745 b3bd fb2c 0ebb 1502 93be 4471 5e3e
000002a0: 155e b5bc 8956 50bd 54a9 b93e e98e a7be
000002b0: 51dd 38be 4c57 003e 3420 ef3d 6936 933e
000002c0: 7b18 5a3d 6f05 8fbe a3fc 08be de05 2ebd
000002d0: e918 6f3e 05e7 7a3d cc4c 41bd ff02 953a
000002e0: bedc f43e 4910 73be 5ba5 bb3d 1abd bf3d
000002f0: 5596 0fbe fe9e 33bf f52c 453e 9764 94bd
00000300: 408e 4c3d a7bc 093c c33b 2e3d 9f15 563d
00000310: 9c3d e03d f8f4 fc3d 38c0 c5bd e73a 563d
00000320: ec90 9c3c f09e 203d c563 48be 8d62 da3d
00000330: 2e18 39bd f235 1bbc b6fc 8fbd c723 f3bc
00000340: ff57 bc3c dd17 60be 411f 7bbf 83ac 843d
00000350: 95aa f43e 1152 07bd 06ee abbe c25f 58bc
00000360: 83d1 b63d aba3 ba3d 8d44 f3bc b6b2 083e
00000370: 0446 cdba a694 153e 2d95 c9bd 416a b53d
00000380: ccca 193d a8a0 f73d c84e af3c 5124 063c
00000390: e024 6e3e cd44 2c3d 7000 cebd 6b3a 09bd
000003a0: e980 223d d60c 01bd 8f0f d33d 6b01 b7bd
000003b0: 57c2 f6bd 3d84 45bc 7843 bebd e5d3 063c
000003c0: 20d6 fd3d 246c 93bd 60a8 05bd 25ea 5d3d
000003d0: f5e4 3fbd ca15 7b3e cc98 083d 36dc 8d3b
000003e0: 64d7 043f 66f4 b7bb 4013 7dbd eeda 7ebd
000003f0: c424 873b 0903 debe 522c 513e a107 373e

fc2.bias f4 [16]
0.02818863 -0.35814863 -0.62199813 0.20986077 0.19821851 -0.3153254 0.22474234 -0.13633423
-0.28591666 0.05564886 0.005999908 0.20643874 -0.30074468 0.14157113 -0.6029302 0.115108736
00000000: d7eb e63c 425f b7be 453b 1fbf bee5 563e
00000010: cbf9 4a3e 5572 a1be db22 663e 339b 0bbe
00000020: ab63 92be 0ff0 633d e09a c43b ad64 533e
00000030: 35fb 99be 06f8 103e a259 1abf 21be eb3d

ln2.weight f4 [16]
0.017341249 0.65688896 0.013170612 3.0737588 3.1507251 0.7848141 2.7418883 0.12550578
0.51341575 -0.000105561325 0.07758957 2.908318 0.73932827 3.1115599 0.004175147 0.0005110928
00000000: 3c0f 8e3c e029 283f 8dc9 573c 77b8 4440
00000010: 7ba5 4940 94e9 483f 197b 2f40 9684 003e
00000020: 376f 033f ce60 ddb8 48e7 9e3d e221 3a40
00000030: 9e44 3d3f cc23 4740 accf 883b dbfa 053a

ln2.bias f4 [16]
-0.75363946 -0.3000966 -0.7299133 2.016518 2.0601714 -0.22342075 1.8792269 -0.7179531
-0.46362132 -0.7516013 -0.7577943 1.9573839 -0.26620808 2.0498827 -0.7443009 -0.7518105
00000000: 84ee 40bf 43a6 99be 99db 3abf a20e 0140
00000010: d9d9 0340 69c8 64be 828a f03f c6cb 37bf
00000020: c65f edbe f168 40bf cffe 41bf 8e8b fa3f
00000030: 6d4c 88be 4731 0340 818a 3ebf a776 40bf

fc3.weight f4 [1, 16]
-1.9193118 -1.6853143 -1.6795835 2.2971077 2.2902029 -1.9610411 2.4297712 -1.5199565
-2.064527 -1.9477189 -1.929092 2.351423 -2.499019 2.3507473 -2.06516 -1.8311077
00000000: 02ac f5bf 61b8 d7bf 98fc d6bf d003 1340
00000010: af92 1240 6503 fbbf 5f81 1b40 ef8d c2bf
00000020: 3621 04c0 da4e f9bf 7dec f6bf b77d 1640
00000030: edef 1fc0 a572 1640 952b 04c0 bd61 eabf
